pose_classifier.tflite (tflite, 27240 bytes, 6 tensors)

model/dense_2/MatMul f4 [4, 64]
0.025632044 -0.76005274 -0.49186802 0.23536289 -0.40008053 0.26690373 0.09767411 -0.29739404
-0.2935147 -0.24924652 0.23923549 0.043942783 0.26622248 0.28930554 0.37131158 0.1757539
-0.39691237 -0.7894348 -0.37577364 0.30819035 0.05626544 0.18125665 0.25240013 -0.8527195
-0.6501321 -0.016334021 0.088020414 -0.27446112 -0.8443488 0.42797068 -0.21181716 -0.36346033
0.21925919 -0.18805005 0.45637614 -0.87954444 0.43962076 0.5203865 -0.5686955 0.1529659
-0.51110023 -0.6658851 0.36171982 -0.76794714 0.31502482 0.22857691 0.35353094 0.06740432
-0.43161675 0.29347405 -0.5132715 -0.7794094 -0.36980602 -0.52726775 -0.36479798 0.18323517
0.06269108 -0.7338615 0.50216776 -0.7826588 0.27090344 0.01521131 0.38244504 -0.6137791
0.21942483 0.16226682 -0.66283417 0.25368285 0.3218275 0.11238641 -0.049508978 -0.32510188
-0.40701348 0.062233593 -0.45125175 -0.031057073 -0.42594114 0.3645869 0.18602811 -0.48426047
-0.5755315 0.23728907 -0.11991434 -0.1800991 -0.7168554 0.067228846 -0.3627595 -0.052512888
0.3179349 -0.023028024 -0.779106 0.12080648 0.052591667 0.24496973 0.24338642 -0.09285211
-0.08185357 0.17070694 0.2698288 -0.30703992 0.27322623 0.047031384 0.16392414 0.19260833
-0.05262909 0.033929102 -0.44950432 0.30052242 -0.5916432 0.13615862 -0.26413485 0.04151008
-0.27073756 0.35600424 -0.18942514 0.3912091 0.058411397 0.027251074 -0.28437862 -0.5488197
-0.52281505 0.2843989 0.09802661 -0.2730813 0.38618872 -0.31212768 0.20732349 -0.7751731
0.04677887 0.37077773 0.61608464 0.14628112 0.44806874 0.20303561 -0.91733885 -0.17143719
-0.32749766 0.3604995 -0.2444289 -0.9578141 -0.5931306 -0.7631894 -0.36998147 -0.37508756
0.53276974 0.26952025 0.049467254 -0.68274957 -0.5375237 -0.30329663 -0.29740307 0.031288583
-0.097299375 0.22976188 0.31442034 0.21863443 0.18704635 0.20052288 0.18401344 -0.28475198
-0.081260785 0.17158456 -0.11632463 0.5984014 -0.2414605 0.22325306 0.27856314 -0.14672679
-0.18427445 0.14454786 -0.16823345 0.17692854 -0.2197823 -1.0296226 -0.19567098 0.043287285
-0.0953023 0.34487823 0.14771272 -0.05768472 -0.3276571 -0.2777393 -0.045821145 -0.37626526
-0.3478713 0.09155002 -0.18913592 -0.43971714 -0.84792316 -0.7669414 0.06531039 0.44931725
-0.037767496 -0.511393 0.24473335 -0.71656686 -0.14144185 -0.7479713 0.13923351 0.6171308
0.42877495 -0.63143677 0.28172815 -0.02118594 0.3440296 0.27272993 0.17779137 0.31521294
0.014211117 -0.43290153 0.60377914 0.19932444 0.17282845 -0.13523571 0.20985337 -0.4800637
-0.25884643 -0.5561613 0.2153925 -0.88487494 -0.29721248 -0.6355615 -0.9850383 0.73245007
-0.52401173 -0.9352718 -0.6259538 -0.079408124 -0.22205545 -0.2017509 -0.4551363 -0.5629086
0.47567475 -0.30462766 0.34219715 -0.24284439 0.32000244 0.27197468 -0.22470358 -0.726479
0.6063905 -0.45430714 0.5342996 -0.5067326 0.2819217 0.6474875 0.53683585 0.17793138
0.059731144 -0.26274553 -0.11129429 0.35039294 0.24908459 -0.015922211 -0.47730237 -0.04691517
00000000: 4bfa d13c d192 42bf 20d6 fbbe f802 713e
00000010: 5bd7 ccbe 9ba7 883e 5d09 c83d 0844 98be
00000020: 8f47 96be 7b3a 7fbe 26fa 743e 59fd 333d
00000030: 504e 883e db1f 943e 8d1c be3e d5f8 333e
00000040: 1938 cbbe 6618 4abf 6765 c0be 20cb 9d3e
00000050: 9776 663d 589b 393e 973a 813e d34b 5abf
00000060: 0f6f 26bf edce 85bc 0c44 b43d 2b86 8cbe
00000070: 3e27 58bf f91e db3e 99e6 58be 7917 babe
00000080: 7b85 603e 3190 40be 22aa e93e d329 61bf
00000090: f915 e13e 0d38 053f 0796 11bf 18a3 1c3e
000000a0: 77d7 02bf 7277 2abf 5733 b93e 2f98 44bf
000000b0: ef4a a13e 1110 6a3e 0202 b53e 470b 8a3d
000000c0: dffc dcbe 3b42 963e c365 03bf 6087 47bf
000000d0: 3757 bdbe 05fb 06bf cdc6 babe 00a2 3b3e
000000e0: 2e64 803d 59de 3bbf 118e 003f 545c 48bf
000000f0: dbb3 8a3e dc38 793c d6cf c33e a120 1dbf
00000100: e7b0 603e 4629 263e 80af 29bf b8e2 813e
00000110: 93c6 a43e d92a e63d edc9 4abd c173 a6be
00000120: 1264 d0be a7e8 7e3d 780a e7be 676b febc
00000130: f514 dabe 22ab ba3e 277e 3e3e fdf0 f7be
00000140: 0856 13bf e8fb 723e a695 f5bd e66b 38be
00000150: d683 37bf 47af 893d 9dbb b9be c117 57bd
00000160: 5dc8 a23e 44a5 bcbc 7e73 47bf 6369 f73d
00000170: 5c6a 573d 58d9 7a3e 4a3a 793e 3f29 bebd
00000180: d8a2 a7bd cdcd 2e3e 0027 8a3e 5634 9dbe
00000190: 4fe4 8b3e fba3 403d bbdb 273e 1e3b 453e
000001a0: 9a91 57bd 3ef9 0a3d 6e25 e6be 13de 993e
000001b0: ee75 17bf 2a6d 0b3e af3c 87be 7906 2a3d
000001c0: 1d9e 8abe 3046 b63e aaf8 41be 8f4c c83e
000001d0: ca40 6f3d a53d df3c 139a 91be 737f 0cbf
000001e0: 35d7 05bf bc9c 913e 2dc2 c83d 50d1 8bbe
000001f0: 87ba c53e 33cf 9fbe 9c4c 543e bf71 46bf
00000200: 339b 3f3d 94d6 bd3e b9b7 1d3f b8ca 153e
00000210: 4469 e53e 91e8 4f3e b8d6 6abf 3b8d 2fbe
00000220: c6ad a7be 6493 b83e 924b 7abe 4e33 75bf
00000230: 68d7 17bf 6160 43bf 366e bdbe 7a0b c0be
00000240: 9963 083f 8ffe 893e 2d9e 4a3d adc8 2ebf
00000250: 279b 09bf b249 9bbe 3745 98be 7528 003d
00000260: e544 c7bd b346 6b3e b4fb a03e b4e1 5f3e
00000270: 1489 3f3e df55 4d3e 056e 3c3e 03cb 91be
00000280: 0e6c a6bd ddb3 2f3e 9c3b eebd d630 193f
00000290: 6c41 77be 739c 643e d49f 8e3e 8c3f 16be
000002a0: 71b2 3cbe 5b04 143e 6445 2cbe c12c 353e
000002b0: 9c0e 61be acca 83bf f95d 48be 024e 313d
000002c0: da2d c3bd e193 b03e 0142 173e d046 6cbd
000002d0: acc2 a7be d833 8ebe f4ae 3bbd d7a5 c0be
000002e0: 301c b2be 947e bb3d d9ac 41be 9b22 e1be
000002f0: 7e11 59bf 4656 44bf 74c1 853d e90c e63e
00000300: 17b2 1abd a7ea 02bf 619b 7a3e ed70 37bf
00000310: 22d6 10be 0c7b 3fbf 3b93 0e3e 49fc 1d3f
00000320: 6488 db3e d7a5 21bf ac3e 903e 238e adbc
00000330: a624 b03e 42a3 8b3e f10e 363e 9763 a13e
00000340: bfd5 683c 45a5 ddbe 4591 1a3f b51b 4c3e
00000350: f1f9 303e 3b7b 0abe cde3 563e e9ca f5be
00000360: 8587 84be 9660 0ebf da8f 5c3e 2a87 62bf
00000370: 3c2c 98be 29b4 22bf 782b 7cbf d981 3b3f
00000380: a225 06bf f96d 6fbf 823e 20bf baa0 a2bd
00000390: 8162 63be ca97 4ebe a007 e9be c71a 10bf
000003a0: a48b f33e 28f8 9bbe 7734 af3e 33ac 78be
000003b0: 5cd7 a33e 4440 8b3e b218 66be 87fa 39bf
000003c0: 683c 1b3f f29a e8be dcc7 083f 3ab9 01bf
000003d0: 0b58 903e bec1 253f 136e 093f a533 363e
000003e0: a5a8 743d 9586 86be 43ee e3bd b466 b33e
000003f0: 0810 7f3e 4c6f 82bc fa60 f4be 1f2a 40bd

model/dense/BiasAdd/ReadVariableOp f4 [128]
0.0141660515 0.0 0.033807058 0.0 0.016760062 0.0 0.0 0.0073162145
0.0 -0.024154836 0.010051924 -0.027564587 0.0 0.0 0.0 0.0
0.030451963 -0.010120051 -0.009745008 0.0 0.008229873 0.026551291 0.0 0.028264087
0.0 0.008286213 0.0059411693 -0.008364558 -0.004502685 0.022730509 -0.013568105 0.0064081918
0.0 0.0 -0.008927049 0.0 -0.0146732535 0.04074269 0.0 0.0
0.0 -0.012689673 -0.004128711 0.0021780804 -0.013025971 -0.007988772 0.0055137128 0.0
0.0 -0.032154795 0.0 -0.0060278196 0.035530496 -0.012130561 0.0 0.0016496177
0.0 0.04228836 0.0022791154 0.0 0.012734026 -0.0053687524 -0.012321834 0.0
0.0018003127 0.0 0.049000513 0.0 0.0 0.014855632 -0.015533776 0.0
0.0 0.0 0.013125001 -0.0023785532 0.014353959 -0.014676727 -0.0022787976 0.0
0.0 0.010401649 -0.017874263 0.0 -0.009954818 0.0 0.0 0.0
0.0 -0.016686175 0.0 -0.0055582603 0.004467946 0.01106612 0.0 0.04355606
-0.021157067 0.03123131 0.0 0.017921375 -0.035310604 0.036967877 -0.039251465 0.014383281
-0.010396434 0.0033748774 0.03846287 -0.010648585 0.0 0.0 0.0 0.0072078197
0.0 0.023029795 0.0 0.0 0.0 0.028103095 -0.007907936 0.0
-0.022702398 0.018879779 0.0 0.0 -0.008875086 0.01284432 -0.027982578 0.0031885514
00000000: ba18 683c 0000 0000 4579 0a3d 0000 0000
00000010: 664c 893c 0000 0000 0000 0000 dbbc ef3b
00000020: 0000 0000 5de0 c5bc d3b0 243c 21cf e1bc
00000030: 0000 0000 0000 0000 0000 0000 0000 0000
00000040: 6576 f93c 92ce 25bc 87a9 1fbc 0000 0000
00000050: 97d6 063c 1882 d93c 0000 0000 168a e73c
00000060: 0000 0000 e5c2 073c 24ae c23b 800b 09bc
00000070: 428b 93bb 5535 ba3c c24c 5ebc cffb d13b
00000080: 0000 0000 0000 0000 c242 12bc 0000 0000
00000090: 1668 70bc cfe1 263d 0000 0000 0000 0000
000000a0: 0000 0000 59e8 4fbc 234a 87bb 20be 0e3b
000000b0: e26a 55bc 57e3 02bc 60ac b43b 0000 0000
000000c0: 0000 0000 bfb4 03bd 0000 0000 0485 c5bb
000000d0: 6d88 113d 43bf 46bc 0000 0000 fc37 d83a
000000e0: 0000 0000 8f36 2d3d 365d 153b 0000 0000
000000f0: 60a2 503c 5cec afbb 85e1 49bc 0000 0000
00000100: 78f8 eb3a 0000 0000 c3b4 483d 0000 0000
00000110: 0000 0000 0965 733c 6181 7ebc 0000 0000
00000120: 0000 0000 0000 0000 3f0a 573c 80e1 1bbb
00000130: de2c 6b3c a876 70bc e157 15bb 0000 0000
00000140: 0000 0000 ae6b 2a3c 0c6d 92bc 0000 0000
00000150: 8819 23bc 0000 0000 0000 0000 0000 0000
00000160: 0000 0000 72b1 88bc 0000 0000 1122 b6bb
00000170: d967 923b ac4e 353c 0000 0000 d767 323d
00000180: 9651 adbc ced8 ff3c 0000 0000 d9cf 923c
00000190: daa1 10bd a16b 173d 25c6 20bd daa7 6b3c
000001a0: ce55 2abc 0c2d 5d3b 3e8b 1d3d 6777 2ebc
000001b0: 0000 0000 0000 0000 0000 0000 932f ec3b
000001c0: 0000 0000 fba8 bc3c 0000 0000 0000 0000
000001d0: 0000 0000 7638 e63c 4a90 01bc 0000 0000
000001e0: 61fa b9bc c4a9 9a3c 0000 0000 0000 0000
000001f0: cf68 11bc fc70 523c b83b e5bc 04f7 503b

model/dense_2/BiasAdd/ReadVariableOp f4 [4]
0.04508102 -0.07423753 0.0644309 -0.06758654
00000000: e0a6 383d d909 98bd 59f4 833d d06a 8abd

model/dense_1/BiasAdd/ReadVariableOp f4 [64]
-0.029226597 0.18163224 0.12571938 0.07293366 0.19940472 0.087131105 0.07288488 0.057664867
0.022898918 0.107983395 0.054284878 0.055587117 0.062568985 0.004921738 0.06567232 0.09643665
0.12892877 0.12851396 0.018351465 0.058339376 0.09009351 0.0004875539 0.037076995 0.23607771
0.027071228 0.13409123 0.13106534 0.2413403 0.17303908 0.038236238 0.14973702 0.062003456
0.02083203 0.17195092 0.0013157493 0.11785884 -0.01953102 0.058454342 0.1901843 -0.004664942
0.02113364 0.18192941 0.0476436 0.014711628 0.014129716 0.08017147 -0.009321161 0.06577243
0.02437466 0.15641427 0.07057012 0.014461844 0.017032607 0.022778042 0.013911771 0.051399898
0.046389308 0.015576113 -0.015304257 0.061201885 0.016102532 0.09377594 -0.0050953534 0.16207439
00000000: 9e6c efbc cdfd 393e 95bc 003e 3e5e 953d
00000010: c030 4c3e cb71 b23d ab44 953d ff31 6c3d
00000020: 8396 bb3c 6626 dd3d d259 5e3d 51af 633d
00000030: 2b24 803d 8846 a13b 367f 863d 9480 c53d
00000040: e705 043e 2a99 033e d055 963c 45f5 6e3d
00000050: f282 b83d 609e ff39 0cde 173d 5bbe 713e
00000060: 7bc4 dd3c 364f 093e fe35 063e e921 773e
00000070: 2831 313e 9a9d 1c3d a954 193e 56f7 7d3d
00000080: efa7 aa3c e713 303e 3875 ac3a fa5f f13d
00000090: 85ff 9fbc d26d 6f3d acbf 423e 5fdc 98bb
000000a0: 7520 ad3c b44b 3a3e ef25 433d 0a09 713c
000000b0: 5380 673c f130 a43d c8b7 18bc b2b3 863d
000000c0: 5ead c73c 102b 203e 1187 903d 5ff1 6c3c
000000d0: f787 8b3c 0499 ba3c 32ee 633c b388 523d
000000e0: b702 3e3d f432 7f3c b5be 7abc d4ae 7a3d
000000f0: 75e9 833c 9a0d c03d ecf6 a6bb d4f6 253e

model/dense/MatMul i1 [128, 34] scale=0.007828664 zero_point=0
-0.03914332 0.101772636 0.007828664 0.12525862 0.07045798 0.14091596 0.22703126 0.03914332
-0.09394397 0.06262931 -0.031314656 -0.09394397 0.1096013 -0.12525862 0.4775485 -0.28183192
-0.36011854 -0.12525862 -0.3522899 -0.39926186 0.40709054 -0.53234917 0.12525862 0.8298384
-0.11742996 -0.6028071 0.07045798 0.14091596 -0.45406252 -0.13308729 0.1722306 0.007828664
-0.27400324 -0.031314656 -0.015657328 0.101772636 -0.1722306 0.031314656 -0.09394397 -0.05480065
-0.046971984 -0.13308729 0.14874461 0.0861153 0.09394397 0.18005927 -0.03914332 -0.12525862
0.07828664 0.18005927 0.14874461 -0.06262931 0.12525862 0.0861153 0.18005927 -0.007828664
0.14091596 -0.13308729 -0.15657328 -0.007828664 -0.1722306 -0.046971984 0.0861153 -0.07828664
0.06262931 0.03914332 0.015657328 0.007828664 -0.38360453 0.015657328 -0.4384052 -0.20354527
-0.14874461 0.0 -0.18005927 -0.20354527 -0.3209752 -0.21137393 0.16440195 -0.046971984
-0.1096013 -0.031314656 0.101772636 0.18005927 -0.11742996 0.03914332 -0.6028071 0.14874461
0.2192026 0.36794722 0.22703126 0.21137393 -0.18005927 -0.4149192 0.13308729 0.1096013
-0.05480065 0.0 0.046971984 0.07828664 0.046971984 0.07828664 0.18005927 0.007828664
0.07045798 0.07828664 -0.05480065 -0.15657328 0.13308729 0.007828664 -0.03914332 0.031314656
0.0861153 -0.015657328 0.11742996 0.046971984 0.06262931 -0.015657328 0.16440195 -0.023485992
-0.18788794 0.07045798 0.11742996 -0.05480065 -0.13308729 0.101772636 0.14874461 -0.0861153
-0.031314656 -0.11742996 -0.09394397 0.101772636 0.023485992 -0.07828664 -0.09394397 0.07045798
-0.5010345 -0.07045798 -0.26617458 -0.07828664 -0.45406252 -0.015657328 -0.3522899 -0.15657328
-0.13308729 -0.21137393 0.0861153 -0.2583459 -0.3288039 -0.1722306 -0.101772636 0.20354527
0.0861153 -0.09394397 -0.28966057 0.2192026 0.5401778 0.101772636 0.15657328 0.48537716
-0.1096013 -0.24268858 0.13308729 -0.007828664 0.023485992 0.1957166 0.12525862 0.0
0.1722306 0.09394397 -0.13308729 -0.101772636 0.18005927 0.07045798 -0.18005927 0.18005927
0.18788794 0.18005927 -0.101772636 0.0861153 -0.11742996 0.07828664 -0.046971984 0.11742996
0.14874461 0.07045798 -0.14091596 0.03914332 0.11742996 -0.101772636 0.12525862 0.06262931
0.101772636 0.05480065 0.18788794 0.06262931 -0.03914332 -0.1722306 -0.11742996 -0.15657328
-0.046971984 0.1722306 0.031314656 0.0861153 0.007828664 0.18005927 -0.046971984 0.015657328
0.06262931 0.11742996 -0.05480065 -0.07045798 0.0861153 0.007828664 -0.16440195 -0.18005927
0.14874461 -0.031314656 -0.12525862 -0.1096013 0.06262931 0.14874461 0.18005927 -0.13308729
0.007828664 0.0861153 0.06262931 -0.15657328 0.1096013 0.09394397 -0.14874461 0.07828664
0.12525862 -0.14874461 -0.11742996 -0.007828664 -0.16440195 0.12525862 -0.14874461 0.18005927
-0.06262931 0.07828664 0.03914332 0.06262931 0.007828664 0.046971984 -0.16440195 0.023485992
0.05480065 -0.046971984 0.15657328 -0.015657328 0.25051725 -0.06262931 -0.25051725 0.007828664
00000000: fb0d 0110 0912 1d05 f408 fcf4 0ef0 3ddc
00000010: d2f0 d3cd 34bc 106a f1b3 0912 c6ef 1601
00000020: ddfc fe0d ea04 f4f9 faef 130b 0c17 fbf0
00000030: 0a17 13f8 100b 17ff 12ef ecff eafa 0bf6
00000040: 0805 0201 cf02 c8e6 ed00 e9e6 d7e5 15fa
00000050: f2fc 0d17 f105 b313 1c2f 1d1b e9cb 110e
00000060: f900 060a 060a 1701 090a f9ec 1101 fb04
00000070: 0bfe 0f06 08fe 15fd e809 0ff9 ef0d 13f5
00000080: fcf1 f40d 03f6 f409 c0f7 def6 c6fe d3ec
00000090: efe5 0bdf d6ea f31a 0bf4 db1c 450d 143e
000000a0: f2e1 11ff 0319 1000 160c eff3 1709 e917
000000b0: 1817 f30b f10a fa0f 1309 ee05 0ff3 1008
000000c0: 0d07 1808 fbea f1ec fa16 040b 0117 fa02
000000d0: 080f f9f7 0b01 ebe9 13fc f0f2 0813 17ef
000000e0: 010b 08ec 0e0c ed0a 10ed f1ff eb10 ed17
000000f0: f80a 0508 0106 eb03 07fa 14fe 20f8 e001

model/dense_1/MatMul i1 [64, 128] scale=0.0071508694 zero_point=0
-0.121564776 0.15731913 0.064357825 -0.050056085 -0.028603477 0.17162086 -0.15016825 -0.092961304
-0.064357825 -0.10726304 -0.042905215 -0.20022434 0.078659564 0.15016825 0.16447 0.14301738
0.08581043 0.14301738 0.050056085 0.11441391 0.10011217 0.021452608 0.064357825 -0.11441391
0.13586652 -0.121564776 -0.15016825 0.050056085 0.092961304 -0.035754345 0.10726304 -0.15016825
-0.07150869 0.078659564 -0.050056085 0.08581043 -0.13586652 0.014301739 -0.028603477 -0.042905215
-0.035754345 0.035754345 0.021452608 -0.14301738 -0.12871565 -0.11441391 -0.078659564 -0.08581043
-0.035754345 -0.14301738 -0.078659564 -0.057206955 -0.078659564 -0.014301739 0.14301738 0.042905215
0.078659564 -0.092961304 -0.092961304 0.121564776 -0.057206955 -0.10011217 -0.18592261 0.0071508694
-0.15731913 0.014301739 0.057206955 0.15016825 0.0 0.028603477 -0.028603477 -0.078659564
0.10011217 0.078659564 -0.17877173 -0.021452608 -0.057206955 -0.12871565 -0.14301738 0.10011217
-0.078659564 -0.16447 -0.042905215 -0.121564776 0.057206955 -0.16447 0.0 0.08581043
0.11441391 -0.121564776 -0.07150869 -0.014301739 0.0 -0.08581043 0.078659564 -0.035754345
-0.17877173 -0.07150869 0.057206955 -0.064357825 0.035754345 -0.10011217 -0.17877173 0.11441391
0.021452608 0.078659564 -0.10011217 0.11441391 -0.057206955 0.042905215 -0.0071508694 -0.17877173
0.050056085 -0.057206955 0.021452608 0.12871565 0.014301739 -0.11441391 -0.0071508694 -0.014301739
0.028603477 0.021452608 0.028603477 -0.11441391 0.057206955 -0.042905215 0.121564776 -0.14301738
-0.27173305 -0.028603477 0.15016825 0.17162086 0.08581043 -0.15016825 -0.021452608 -0.3503926
0.0 -0.0071508694 -0.2788839 -0.14301738 -0.14301738 -0.042905215 0.0 0.078659564
0.29318565 -0.050056085 -0.12871565 0.035754345 -0.37184522 0.16447 -0.14301738 0.37184522
-0.10011217 -0.5077117 0.26458216 0.15731913 -0.21452609 0.050056085 -0.24312955 0.11441391
0.021452608 -0.035754345 0.064357825 -0.057206955 0.092961304 0.29318565 -0.0071508694 0.050056085
-0.014301739 -0.18592261 -0.08581043 0.064357825 0.07150869 0.042905215 0.21452609 0.11441391
-0.050056085 0.042905215 -0.021452608 -0.057206955 0.35754347 0.0 -0.17162086 -0.021452608
-0.021452608 0.18592261 0.08581043 -0.014301739 -0.42905217 -0.07150869 -0.19307347 -0.17162086
0.21452609 0.092961304 0.25028044 0.14301738 -0.15016825 -0.41475043 -0.17162086 0.050056085
-0.16447 -0.028603477 0.18592261 0.28603476 -0.36469433 -0.042905215 -0.2788839 -0.064357825
-0.064357825 -0.35754347 -0.24312955 0.12871565 -0.057206955 0.07150869 0.11441391 0.0071508694
0.035754345 -0.0071508694 0.092961304 0.16447 -0.20737521 -0.22167695 0.10726304 0.32178912
0.057206955 -0.050056085 -0.092961304 -0.22882782 -0.042905215 0.078659564 -0.10011217 -0.4433539
-0.30748737 0.21452609 0.16447 -0.18592261 0.12871565 -0.042905215 0.10011217 -0.08581043
0.14301738 0.19307347 -0.15731913 0.0 -0.078659564 0.22167695 0.10726304 0.050056085
-0.11441391 0.12871565 0.092961304 0.08581043 0.10011217 -0.40044868 -0.042905215 0.0071508694
00000000: ef16 09f9 fc18 ebf3 f7f1 fae4 0b15 1714
00000010: 0c14 0710 0e03 09f0 13ef eb07 0dfb 0feb
00000020: f60b f90c ed02 fcfa fb05 03ec eef0 f5f4
00000030: fbec f5f8 f5fe 1406 0bf3 f311 f8f2 e601
00000040: ea02 0815 0004 fcf5 0e0b e7fd f8ee ec0e
00000050: f5e9 faef 08e9 000c 10ef f6fe 00f4 0bfb
00000060: e7f6 08f7 05f2 e710 030b f210 f806 ffe7
00000070: 07f8 0312 02f0 fffe 0403 04f0 08fa 11ec
00000080: dafc 1518 0ceb fdcf 00ff d9ec ecfa 000b
00000090: 29f9 ee05 cc17 ec34 f2b9 2516 e207 de10
000000a0: 03fb 09f8 0d29 ff07 fee6 f409 0a06 1e10
000000b0: f906 fdf8 3200 e8fd fd1a 0cfe c4f6 e5e8
000000c0: 1e0d 2314 ebc6 e807 e9fc 1a28 cdfa d9f7
000000d0: f7ce de12 f80a 1001 05ff 0d17 e3e1 0f2d
000000e0: 08f9 f3e0 fa0b f2c2 d51e 17e6 12fa 0ef4
000000f0: 141b ea00 f51f 0f07 f012 0d0c 0ec8 fa01
