pose_classifier_old.tflite (tflite, 27240 bytes, 6 tensors)

model/dense_2/MatMul f4 [4, 64]
-0.06870382 -0.8995479 -0.40835026 0.21150064 -0.43169644 0.35225886 0.095525466 -0.32330003
-0.29236442 -0.05359317 0.25320876 0.096951954 0.3023094 0.31137756 0.38904938 0.18213518
-0.5434395 -0.79411376 -0.32754943 0.3110944 0.075311854 0.19863935 0.26761985 -0.8076946
-0.30396837 -0.33944908 0.13070479 -0.11224022 -0.90692276 0.44885108 -0.16371697 -0.26119843
0.22727534 -0.17571113 0.44024393 -0.4270893 0.39508492 0.5457005 -0.66218376 0.17779353
-0.57758594 -0.7461131 0.36181247 -0.86257285 0.18510115 0.20651327 0.3860104 0.07387119
-0.42674577 0.26435012 -0.32307777 -0.67709094 -0.398247 -0.38314563 -0.41848403 0.16932379
0.049660042 -0.80040103 0.42858708 -0.83153236 0.26772776 0.00571826 0.37800917 -0.10273562
0.45094034 0.17589353 -0.71886915 0.2246824 0.36439702 0.019052198 -0.16291681 -0.34248635
-0.44903642 0.09215803 -0.4579288 -0.09696665 -0.48128048 0.41301134 0.34967616 -0.5812832
-0.6102365 0.23315729 -0.14755167 -0.13013873 -0.7592525 0.04292302 -0.46816322 -0.010216502
0.54401314 -0.2120747 -0.93180686 0.14392239 0.06509026 0.15204944 0.23806192 -0.025620533
0.0022269425 0.1598945 0.3244126 -0.4118647 0.3843631 0.103187665 0.1603353 0.25997624
-0.10879511 0.069518834 -0.49743983 0.2863944 -0.78370005 0.21691625 -0.24271894 0.067661524
-0.29394332 0.35416907 -0.30681956 0.04201677 -0.05867595 0.18785201 -0.35611725 -0.5356564
-0.57302064 0.29375947 -0.09044968 -0.37485367 0.28981727 -0.24270944 0.27124816 -0.16919222
-0.16074659 0.3569217 0.6998658 0.14221953 0.43905598 0.25518677 -0.87169033 -0.11724227
-0.39000657 0.29950398 -0.18639587 -0.9672451 -0.6402851 -0.83196247 -0.70788795 -0.4269822
0.5830558 0.25491303 0.014949721 -0.78086174 -0.52062535 -0.1925406 -0.34973472 0.027606778
-0.42689732 0.4296447 0.33866623 0.16595079 0.16427009 0.20030157 0.2067752 -0.24618126
-0.18100384 0.17612952 -0.14572798 0.52452534 -0.38175935 0.12227333 0.3564432 -0.21963939
-0.23158348 0.09268643 -0.15272874 0.21904954 0.70231825 -1.1263707 -0.21813698 0.042271785
-0.114253275 0.34796318 0.07396916 -0.18492678 -0.30638334 -0.25909564 -0.10539543 -0.32948136
-0.30105877 0.12201684 -0.14536338 -0.48115534 -0.99491 -0.8305602 0.028833725 -0.048896432
-0.0063415603 -0.51752484 0.11032524 -0.67829835 -0.231277 -0.7218786 0.14996675 0.6116922
0.45220608 -0.7473669 0.28990567 -0.033354763 0.3417142 0.27247736 0.17844361 0.33408695
0.17723872 -0.4408227 0.6029914 0.22364205 0.16646883 -0.20174803 0.22604838 -0.5807525
0.0054386887 -0.33806556 0.2064374 -0.9159055 -0.3261988 -0.5760355 -1.0467901 0.64862275
-0.51582354 -1.0195087 -0.6645252 0.13841033 -0.12587859 -0.16789131 -0.37785614 -0.6164077
0.55919415 -0.3064156 0.37021106 -0.24767286 0.28545547 0.26540974 -0.25291452 -0.80622566
0.6107851 -0.4813026 0.34205514 0.4085652 0.34907433 0.46171883 0.61663496 0.18220156
0.051511955 -0.24716224 0.017593997 0.38843548 0.2753704 -0.01835407 -0.50459504 -0.74068
00000000: 97b4 8cbd c548 66bf 4913 d1be a093 583e
00000010: 5107 ddbe 465b b43e dba2 c33d 9587 a5be
00000020: cab0 95be 8384 5bbd 94a4 813e bf8e c63d
00000030: 4cc8 9a3e e16c 9f3e 7b31 c73e a581 3a3e
00000040: da1e 0bbf 0a4b 4bbf 8fb4 a7be c447 9f3e
00000050: 1a3d 9a3d 1d68 4b3e 7805 893e 13c5 4ebf
00000060: bea1 9bbe 45cc adbe 7ad7 053e 33de e5bd
00000070: 172c 68bf cfcf e53e 6ca5 27be cdbb 85be
00000080: deba 683e 9eed 33be a767 e13e 73ab dabe
00000090: 9248 ca3e 07b3 0b3f e084 29bf 820f 363e
000000a0: acdc 13bf 4501 3fbf 7c3f b93e 93d1 5cbf
000000b0: 288b 3d3e 3778 533e 28a3 c53e c749 973d
000000c0: 6c7e dabe e658 873e 736a a5be d555 2dbf
000000d0: 08e7 cbbe aa2b c4be 8a43 d6be 3763 2d3e
000000e0: 5468 4b3d 15e7 4cbf c46f db3e 4edf 54bf
000000f0: 9d13 893e 3e60 bb3b 6b8a c13e 0e67 d2bd
00000100: a7e1 e63e 6f1d 343e cf07 38bf 2513 663e
00000110: 3f92 ba3e 5b13 9c3c aad3 26be 5f5a afbe
00000120: 1ae8 e5be 59bd bc3d a575 eabe 7396 c6bd
00000130: 656a f6be 3976 d33e c108 b33e face 14bf
00000140: 7638 1cbf c9c0 6e3e c917 17be 1643 05be
00000150: 5f5e 42bf 0cd0 2f3d 17b3 efbe 1d63 27bc
00000160: 7244 0b3f 1c2a 59be e58a 6ebf 6460 133e
00000170: 0b4e 853d d9b2 1b3e 81c6 733e 27e2 d1bc
00000180: e5f1 113b 62bb 233e 6919 a63e eedf d2be
00000190: 3ecb c43e 0e54 d33d f02e 243e 9b1b 853e
000001a0: f8cf debd e45f 8e3d 6fb0 febe 49a2 923e
000001b0: 91a0 48bf 4b1f 5e3e 508b 78be 2092 8a3d
000001c0: bd7f 96be a655 b53e 7417 9dbe c719 2c3d
000001d0: 3156 70bd 475c 403e 0055 b6be c720 09bf
000001e0: 7bb1 12bf a467 963e af3d b9bd d2ec bfbe
000001f0: ee62 943e d388 78be 0ae1 8a3e ba40 2dbe
00000200: c19a 24be 71be b63e 682a 333f ffa1 113e
00000210: f2cb e03e d7a7 823e 1927 5fbf b71c f0bd
00000220: f1ae c7be 9658 993e 8fde 3ebe 609d 77bf
00000230: b9e9 23bf 7efb 54bf 2538 35bf 699d dabe
00000240: 2543 153f f683 823e adef 743c 8ee6 47bf
00000250: b447 05bf 5d29 45be 6e10 b3be 9c27 e23c
00000260: 4992 dabe 64fa db3e a965 ad3e 01ef 293e
00000270: 6b36 283e db1b 4d3e e1bc 533e f116 7cbe
00000280: 1259 39be 4c5b 343e b739 15be 4b47 063f
00000290: f675 c3be 716a fa3d b97f b63e 26e9 60be
000002a0: 3824 6dbe 62d2 bd3d ec64 1cbe 864e 603e
000002b0: 21cb 333f ea2c 90bf 4d5f 5fbe 2e25 2d3d
000002c0: 9ffd e9bd 3b28 b23e 257d 973d 725d 3dbe
000002d0: 47de 9cbe 2fa8 84be 8fd9 d7bd c8b1 a8be
000002e0: 6024 9abe f7e3 f93d 23da 14be fe59 f6be
000002f0: 6cb2 7ebf 989f 54bf b434 ec3c a047 48bd
00000300: ddcc cfbb 827c 04bf 33f2 e13d f6a4 2dbf
00000310: e1d3 6cbe 09cd 38bf e290 193e dc97 1c3f
00000320: 8e87 e73e 7053 3fbf 846e 943e 019f 08bd
00000330: 2af5 ae3e 2782 8b3e ecb9 363e 720d ab3e
00000340: 117e 353e 83b3 e1be a55d 1a3f 6c02 653e
00000350: ce76 2a3e 0997 4ebe 3a79 673e 32ac 14bf
00000360: 0737 b23b ee16 adbe 5364 533e c878 6abf
00000370: 8703 a7be 1077 13bf 38fd 85bf 240c 263f
00000380: 030d 04bf 437f 82bf 531e 2abf 70bb 0d3e
00000390: 51e6 00be b3eb 2bbe 5c76 c1be e5cc 1dbf
000003a0: 5927 0f3f 81e2 9cbe 4e8c bd3e f49d 7dbe
000003b0: 3827 923e c9e3 873e 037e 81be ce64 4ebf
000003c0: 6a5c 1c3f 4b6d f6be da21 af3e 752f d13e
000003d0: dfb9 b23e 6966 ec3e cadb 1d3f 0c93 3a3e
000003e0: 33fe 523d 1918 7dbe 4921 903c 04e1 c63e
000003f0: 59fd 8c3e 465b 96bc 242d 01bf 349d 3dbf

model/dense/BiasAdd/ReadVariableOp f4 [128]
0.01163158 0.0 0.032002073 0.0 0.008033831 0.0 0.0 0.007957301
0.0 0.0012953558 -0.0012792206 -0.02562458 0.0 0.0 0.0 0.0
0.038764782 -0.012127108 0.0052887322 0.0 0.016690644 0.004356477 0.0 0.022749828
0.0 -0.009199399 -0.020634579 0.030581422 0.002460461 0.016890885 -0.02845634 -0.0018415963
0.0 0.0 -0.0062888083 0.0 -0.013587803 0.014938653 0.0 0.0
0.0 -0.014837583 -0.0052274643 -0.005449092 -0.012967087 -0.007937855 -8.827134e-05 0.0
0.0 -0.03196899 0.0 -0.025176575 0.067599036 0.013850826 0.0 -0.026383394
0.0 0.035682444 -0.005113266 0.0 -0.0010775572 0.011822294 -0.011627073 0.0
-0.014968687 0.0 0.041944183 0.0 0.0 0.021174792 -0.017133975 0.0
0.0 0.0 0.012138099 0.0047979276 0.019062392 -0.0126865925 -0.025910199 0.0
0.0 0.013031084 0.0026124602 0.0 0.025483772 0.0 0.0 0.0
0.0 -0.015726916 0.0 -0.008476423 -0.01191945 0.013463606 0.0 0.041738912
-0.017392829 0.012892921 0.0 0.02206013 -0.0104527455 0.043600034 -0.042569112 0.010031325
-0.0011920468 0.025235984 0.038874734 -0.011302148 0.0 0.0 0.0 0.004765006
0.0 0.028878383 0.0 0.0 0.0 0.049002025 -0.0059945043 0.0
-0.038412753 0.013675805 0.0 0.0 -0.0016394118 0.015701035 -0.024788138 0.013271562
00000000: 6292 3e3c 0000 0000 9b14 033d 0000 0000
00000010: 54a0 033c 0000 0000 0000 0000 575f 023c
00000020: 0000 0000 eec8 a93a 85ab a7ba a4ea d1bc
00000030: 0000 0000 0000 0000 0000 0000 0000 0000
00000040: d2c7 1e3d c7b0 46bc 1a4d ad3b 0000 0000
00000050: d1ba 883c c7c0 8e3b 0000 0000 d95d ba3c
00000060: 0000 0000 13b9 16bc d909 a9bc e485 fa3c
00000070: b03f 213b c15e 8a3c 451d e9bc b861 f1ba
00000080: 0000 0000 0000 0000 5912 cebb 0000 0000
00000090: 609f 5ebc 41c1 743c 0000 0000 0000 0000
000000a0: 0000 0000 5519 73bc 264b abbb 4c8e b2bb
000000b0: e873 54bc c70d 02bc 511e b9b8 0000 0000
000000c0: 0000 0000 eaf1 02bd 0000 0000 1b3f cebc
000000d0: 5d71 8a3d 93ee 623c 0000 0000 fd21 d8bc
000000e0: 0000 0000 c127 123d 2f8d a7bb 0000 0000
000000f0: d23c 8dba 4cb2 413c 7b7f 3ebc 0000 0000
00000100: 393f 75bc 0000 0000 aacd 2b3d 0000 0000
00000110: 0000 0000 c276 ad3c 8d5c 8cbc 0000 0000
00000120: 0000 0000 0000 0000 e1de 463c ef37 9d3b
00000130: bc28 9c3c 6ddb 4fbc a041 d4bc 0000 0000
00000140: 0000 0000 5480 553c cf35 2b3b 0000 0000
00000150: 58c3 d03c 0000 0000 0000 0000 0000 0000
00000160: 0000 0000 bcd5 80bc 0000 0000 b2e0 0abc
00000170: cc49 43bc 7596 5c3c 0000 0000 6cf6 2a3d
00000180: 687b 8ebc d53c 533c 0000 0000 72b7 b43c
00000190: fe41 2bbc f395 323d f35c 2ebd 6d5a 243c
000001a0: 743e 9cba b2bb ce3c 1d3b 1f3d a52c 39bc
000001b0: 0000 0000 0000 0000 0000 0000 c423 9c3b
000001c0: 0000 0000 5c92 ec3c 0000 0000 0000 0000
000001d0: 0000 0000 59b6 483d 8c6d c4bb 0000 0000
000001e0: b156 1dbd 7c10 603c 0000 0000 0000 0000
000001f0: 88e1 d6ba 759f 803c 7e10 cbbc f770 593c

model/dense_2/BiasAdd/ReadVariableOp f4 [4]
0.05396071 -0.07805357 0.085061915 -0.09057491
00000000: e805 5d3d 8dda 9fbd f134 ae3d 577f b9bd

model/dense_1/BiasAdd/ReadVariableOp f4 [64]
0.055647854 0.22011831 0.1302363 0.06756778 0.20949759 0.08708375 0.09654894 0.065288074
0.021722602 0.12289014 0.06843745 0.059748385 0.06562994 0.009927533 0.046045646 0.11450742
0.12273734 0.12993294 0.0053007794 0.060238868 0.07848929 -0.0047090594 0.05424199 0.23611747
0.07350122 0.124074355 0.13267706 0.21362029 0.17972589 0.027636372 0.17975162 0.04946509
-0.005768792 0.21889706 -0.022197224 0.074419074 -0.02205452 0.014211568 0.21280974 -0.02905566
0.01777638 0.15785637 0.069610536 0.07088959 0.1400547 0.08060176 0.002383091 0.072987415
0.033535317 0.17854075 0.05800798 0.027826132 -0.0047871247 0.0027975978 0.013829371 -0.00044739147
0.06964425 0.05287831 0.012745005 0.07391768 0.06618524 0.087416254 0.0010720795 0.12974815
00000000: 01ef 633d b266 613e aa5c 053e fa60 8a3d
00000010: 8986 563e f758 b23d 73bb c53d c1b5 853d
00000020: 99f3 b13c d3ad fb3d ef28 8c3d b9ba 743d
00000030: fd68 863d 17a7 223c 5c9a 3c3d de82 ea3d
00000040: b75d fb3d 240d 053e 29b2 ad3b 08bd 763d
00000050: febe a03d 744e 9abb d92c 5e3d c7c8 713e
00000060: cf87 963d b21a fe3d 7fdc 073e 47bf 5a3e
00000070: 100a 383e ac65 e23c cf10 383e e89b 4a3d
00000080: 2208 bdbb 8d26 603e f4d6 b5bc 0769 983d
00000090: aeab b4bc a3d7 683c ccea 593e 2306 eebc
000000a0: c59f 913c 1aa5 213e f88f 8e3d 902e 913d
000000b0: 806a 0f3e 8912 a53d a22d 1c3b 6d7a 953d
000000c0: 545c 093d 63d3 363e c799 6d3d a1f3 e33c
000000d0: 50dd 9cbb e757 373b 9694 623c de8f eab9
000000e0: a5a1 8e3d ed96 583d 6dd0 503c 2762 973d
000000f0: 218c 873d 4b07 b33d 0585 8c3a b3dc 043e

model/dense/MatMul i1 [128, 34] scale=0.010128622 zero_point=0
-0.07090035 0.0911576 -0.030385867 0.12154347 0.040514488 0.13167208 0.20257244 0.030385867
-0.13167208 0.05064311 -0.010128622 -0.11141484 0.07090035 -0.1418007 0.5064311 -0.2329583
-0.38488764 -0.07090035 -0.5064311 -0.33424452 0.5773314 -0.455788 0.15192933 0.98247635
-0.1418007 -0.74951804 0.10128622 0.16205795 -0.5064311 -0.12154347 0.20257244 0.010128622
-0.30385867 -0.030385867 -0.010128622 0.10128622 -0.17218657 0.030385867 -0.0911576 -0.060771734
-0.05064311 -0.1418007 0.15192933 0.0911576 0.0911576 0.1823152 -0.040514488 -0.12154347
0.07090035 0.17218657 0.1418007 -0.060771734 0.12154347 0.081028976 0.1823152 -0.010128622
0.1418007 -0.13167208 -0.15192933 0.0 -0.17218657 -0.05064311 0.0911576 -0.081028976
0.060771734 0.030385867 0.010128622 0.010128622 -0.33424452 0.010128622 -0.40514487 -0.21270107
-0.11141484 -0.010128622 -0.15192933 -0.21270107 -0.31398728 -0.22282968 0.19244382 -0.05064311
-0.11141484 -0.040514488 0.10128622 0.17218657 -0.12154347 0.030385867 -0.61784595 0.1418007
0.2329583 0.3646304 0.24308693 0.22282968 -0.19244382 -0.42540213 0.13167208 0.12154347
-0.060771734 0.020257244 0.040514488 0.0911576 0.040514488 0.10128622 0.1823152 0.010128622
0.07090035 0.07090035 -0.05064311 -0.16205795 0.13167208 0.010128622 -0.040514488 0.030385867
0.0911576 -0.010128622 0.12154347 0.040514488 0.060771734 -0.020257244 0.16205795 -0.020257244
-0.19244382 0.07090035 0.11141484 -0.05064311 -0.13167208 0.10128622 0.15192933 -0.0911576
-0.030385867 -0.12154347 -0.0911576 0.10128622 0.030385867 -0.081028976 -0.0911576 0.07090035
-0.47604522 -0.060771734 -0.30385867 -0.07090035 -0.39501625 -0.010128622 -0.3241159 -0.15192933
-0.0911576 -0.21270107 0.11141484 -0.26334417 -0.31398728 -0.17218657 -0.060771734 0.20257244
0.060771734 -0.10128622 -0.29373005 0.21270107 0.53681695 0.0911576 0.16205795 0.53681695
-0.12154347 -0.29373005 0.16205795 -0.010128622 -0.040514488 0.19244382 0.15192933 -0.030385867
0.11141484 0.060771734 -0.13167208 -0.10128622 0.1823152 0.07090035 -0.17218657 0.1823152
0.19244382 0.1823152 -0.10128622 0.0911576 -0.12154347 0.081028976 -0.05064311 0.12154347
0.15192933 0.07090035 -0.1418007 0.040514488 0.11141484 -0.10128622 0.12154347 0.060771734
0.10128622 0.060771734 0.19244382 0.060771734 -0.040514488 -0.17218657 -0.12154347 -0.15192933
-0.05064311 0.17218657 0.030385867 0.081028976 0.010128622 0.1823152 -0.05064311 0.020257244
0.060771734 0.12154347 -0.05064311 -0.07090035 0.0911576 0.010128622 -0.17218657 -0.1823152
0.15192933 -0.030385867 -0.12154347 -0.11141484 0.060771734 0.15192933 0.1823152 -0.13167208
0.010128622 0.0911576 0.060771734 -0.15192933 0.11141484 0.0911576 -0.1418007 0.081028976
0.12154347 -0.15192933 -0.12154347 -0.010128622 -0.16205795 0.12154347 -0.12154347 0.15192933
-0.07090035 0.060771734 0.07090035 0.040514488 -0.081028976 0.030385867 -0.16205795 0.0
0.05064311 -0.07090035 0.1418007 -0.030385867 0.15192933 -0.10128622 -0.17218657 0.020257244
00000000: f909 fd0c 040d 1403 f305 fff5 07f2 32e9
00000010: daf9 cedf 39d3 0f61 f2b6 0a10 cef4 1401
00000020: e2fd ff0a ef03 f7fa fbf2 0f09 0912 fcf4
00000030: 0711 0efa 0c08 12ff 0ef3 f100 effb 09f8
00000040: 0603 0101 df01 d8eb f5ff f1eb e1ea 13fb
00000050: f5fc 0a11 f403 c30e 1724 1816 edd6 0d0c
00000060: fa02 0409 040a 1201 0707 fbf0 0d01 fc03
00000070: 09ff 0c04 06fe 10fe ed07 0bfb f30a 0ff7
00000080: fdf4 f70a 03f8 f707 d1fa e2f9 d9ff e0f1
00000090: f7eb 0be6 e1ef fa14 06f6 e315 3509 1035
000000a0: f4e3 10ff fc13 0ffd 0b06 f3f6 1207 ef12
000000b0: 1312 f609 f408 fb0c 0f07 f204 0bf6 0c06
000000c0: 0a06 1306 fcef f4f1 fb11 0308 0112 fb02
000000d0: 060c fbf9 0901 efee 0ffd f4f5 060f 12f3
000000e0: 0109 06f1 0b09 f208 0cf1 f4ff f00c f40f
000000f0: f906 0704 f803 f000 05f9 0efd 0ff6 ef02

model/dense_1/MatMul i1 [64, 128] scale=0.0071388856 zero_point=0
0.035694428 0.15705548 0.09280551 -0.0499722 0.08566663 0.17133325 -0.14991659 0.0071388856
-0.06424997 0.12849994 0.071388856 -0.121361054 0.07852774 0.14991659 0.16419438 0.14277771
0.19274992 0.14277771 0.22130546 0.11422217 0.26413876 -0.08566663 0.06424997 -0.0071388856
0.13563883 -0.17847213 0.06424997 -0.2926943 0.15705548 -0.36408317 0.10708328 -0.028555542
-0.071388856 0.07852774 -0.0499722 0.08566663 -0.13563883 0.06424997 -0.028555542 -0.042833313
-0.035694428 0.0499722 0.021416657 -0.23558322 -0.12849994 -0.11422217 -0.014277771 -0.08566663
-0.035694428 0.11422217 -0.07852774 -0.11422217 -0.021416657 -0.21416657 0.14277771 -0.057111084
0.08566663 -0.042833313 -0.08566663 0.121361054 0.1998888 -0.19274992 -0.15705548 0.0071388856
-0.042833313 0.014277771 0.15705548 0.14991659 0.0 0.16419438 -0.028555542 -0.07852774
0.0999444 0.07852774 -0.0499722 0.021416657 0.06424997 -0.13563883 -0.13563883 0.0999444
-0.07852774 -0.021416657 0.057111084 -0.121361054 0.11422217 -0.16419438 0.0 0.08566663
0.121361054 -0.1998888 -0.071388856 -0.014277771 -0.06424997 -0.14991659 0.07852774 0.121361054
-0.14277771 -0.28555542 0.057111084 -0.32838875 0.13563883 -0.028555542 -0.17133325 0.18561102
-0.21416657 0.32838875 -0.121361054 0.21416657 -0.057111084 0.042833313 -0.0071388856 -0.19274992
0.0499722 0.021416657 0.021416657 0.12849994 0.014277771 -0.10708328 -0.0071388856 -0.014277771
0.028555542 -0.014277771 0.028555542 -0.11422217 0.0999444 0.028555542 0.17133325 -0.47830534
-0.22130546 -0.028555542 0.23558322 0.17133325 0.11422217 -0.14991659 -0.021416657 -0.35694426
0.0 -0.10708328 -0.249861 -0.07852774 -0.14277771 -0.042833313 0.0 0.07852774
0.32838875 -0.057111084 -0.13563883 0.035694428 -0.37122205 -0.028555542 -0.14277771 0.3926387
-0.0999444 -0.2926943 0.17133325 0.13563883 -0.32124984 0.07852774 -0.26413876 0.121361054
0.021416657 -0.035694428 0.06424997 -0.057111084 0.09280551 0.3426665 -0.0071388856 0.0499722
-0.014277771 0.014277771 -0.08566663 0.10708328 0.071388856 0.042833313 0.20702767 0.11422217
-0.0499722 0.028555542 -0.021416657 -0.11422217 0.3997776 -0.36408317 -0.17133325 0.021416657
-0.021416657 0.21416657 -0.08566663 -0.014277771 -0.38549984 -0.17133325 0.014277771 -0.17133325
0.22130546 0.09280551 0.23558322 0.14277771 -0.14991659 -0.42833313 -0.17133325 0.0499722
-0.16419438 -0.028555542 0.23558322 0.32838875 -0.22844434 -0.042833313 0.121361054 -0.06424997
-0.06424997 -0.40691647 -0.3069721 0.12849994 0.10708328 0.071388856 0.11422217 0.0071388856
0.035694428 -0.16419438 0.09280551 0.15705548 -0.24272211 -0.27841654 0.10708328 0.34980538
0.057111084 -0.12849994 -0.09280551 -0.028555542 0.0999444 0.10708328 -0.13563883 -0.5496942
-0.41405535 0.014277771 0.13563883 -0.12849994 0.12849994 -0.042833313 0.0999444 0.014277771
0.14277771 0.29983318 -0.15705548 0.0 -0.07852774 0.28555542 0.10708328 0.0499722
-0.18561102 0.021416657 0.09280551 0.08566663 0.121361054 -0.47830534 -0.014277771 0.0071388856
00000000: 0516 0df9 0c18 eb01 f712 0aef 0b15 1714
00000010: 1b14 1f10 25f4 09ff 13e7 09d7 16cd 0ffc
00000020: f60b f90c ed09 fcfa fb07 03df eef0 fef4
00000030: fb10 f5f0 fde2 14f8 0cfa f411 1ce5 ea01
00000040: fa02 1615 0017 fcf5 0e0b f903 09ed ed0e
00000050: f5fd 08ef 10e9 000c 11e4 f6fe f7eb 0b11
00000060: ecd8 08d2 13fc e81a e22e ef1e f806 ffe5
00000070: 0703 0312 02f1 fffe 04fe 04f0 0e04 18bd
00000080: e1fc 2118 10eb fdce 00f1 ddf5 ecfa 000b
00000090: 2ef8 ed05 ccfc ec37 f2d7 1813 d30b db11
000000a0: 03fb 09f8 0d30 ff07 fe02 f40f 0a06 1d10
000000b0: f904 fdf0 38cd e803 fd1e f4fe cae8 02e8
000000c0: 1f0d 2114 ebc4 e807 e9fc 212e e0fa 11f7
000000d0: f7c7 d512 0f0a 1001 05e9 0d16 ded9 0f31
000000e0: 08ee f3fc 0e0f edb3 c602 13ee 12fa 0e02
000000f0: 142a ea00 f528 0f07 e603 0d0c 11bd fe01
