pose_classifier.tflite (tflite, 27760 bytes, 6 tensors)

model/dense_2/MatMul f4 [6, 64]
00000000: e45a 163f d9af 683e bfd5 e63c e1bc fb3e
00000010: 09c2 8d3e 4db0 213e f1b3 ab3d 0606 61bf
00000020: 82e9 d43e a4ee cd3e 4030 6e3e 4207 d13e
00000030: ed96 62bf 67a4 843c 32dd dabd b244 743e
00000040: 5b78 d5be b200 0fbf 943d 88bf dce9 3cbf
00000050: aa38 3f3e 7c53 f1bc dde9 25bf 7ae5 4ebe
00000060: 929f 96bd 27b3 95bf acc7 ed3e e76e a63e
00000070: ddf6 373e de9e 733e 1211 6bbe 17bb 65bf
00000080: b437 753e 4f4a 3dbe 3ae4 9a3e 370d a43e
00000090: fc94 81bf eec1 a5bf ecb3 c23d 1cd3 95bf
000000a0: 7633 8c3e 43e8 fc3e 5bde 9abe 89bd cf3e
000000b0: 6c8c e0be 46ca 28bf 568d 9a3d 1c5d cabd
000000c0: c28f d0be 1fa7 d83e 6936 00bf af69 b7be
000000d0: f69c 933d fe1d 79be 7951 48bf 0f8a 1abf
000000e0: b121 d83e e678 243e a0e6 c73e 0c30 a13e
000000f0: 7324 f23d e3ee cabe 2deb 2dbf d6a9 9c3b
00000100: 7d2d 45bd 9329 fbbe 6e55 3f3e 20d7 5f3e
00000110: 1e85 98bf 0aa3 76bf ab3c babe a3dd 003f
00000120: d894 0c3e 0660 953e c416 a5bf 7ede 56bd
00000130: b66b 193e 76e0 b83e a90c 8fbf 8e72 a2bf
00000140: 0b82 09be 83f8 afbe e5c7 1d3f 447f 56be
00000150: 6f21 cdbe 5f50 b3ba 5d55 86be 79e7 5abd
00000160: 759e a53e 4b81 8f3e f029 e63e 8031 42bf
00000170: 7444 4e3e eb58 86be 696f 853e 93ad d2be
00000180: 49e1 b43e 0147 453e 9686 1dbf 1af1 77bf
00000190: 4297 ef3e d381 ea3e 3c93 a2bf 5ed6 813e
000001a0: 8b39 a2bf eef0 e9bc dc32 f7be d0d9 b13e
000001b0: 62f4 753e 5dc0 70be edc0 c0bf 4105 543f
000001c0: c6fc 9abf 9e73 11bf 4879 15bf a174 823f
000001d0: 696d 903e 3986 31bf 6af1 94be 54d4 a7be
000001e0: 5d0f 6e3e 8423 843e 016b 09bf 49bf fd3d
000001f0: f32d c7be 3e9b debe 0b27 0c3f c22a a0bf
00000200: 0c57 e8be 17e3 b3be 117f 303e 7a8c d43d
00000210: 5569 d53d 3498 84bf 7b6c 9cbf c564 c93e
00000220: f66c 2bbe 9650 0cbf b414 793d 80ae f4be
00000230: 77be eb3d 7154 853e 1d51 ca3e 2692 91be
00000240: 1cb3 ffbe bb6a f13e 8c74 b73e 30a8 7bbf
00000250: 7397 65bf be0b d43e bb49 a03e 9a8d ef3d
00000260: c834 863d 45c6 543e b82f 2ebf e64b 72bf
00000270: e136 f53d 2dd1 4e3e 3b54 513e b88b e53e
00000280: 2e7e 973e 70f3 5b3d a75b 9cbf 6724 e8be
00000290: c1ac b63e 10bc c73e 03f5 c7bd 0903 273e
000002a0: 4fe9 613d 338e f5be 7e4d 19bf 6200 bfbe
000002b0: fefc 463e e8bf 3bbf e1ea a3bd b5be 06bf
000002c0: c4c2 183e 88bc 0cbe e16b 0dbf 2953 d7be
000002d0: 65f7 653e 4a37 443e 4162 f8be 2560 83bf
000002e0: e426 9cbd 4bf7 7b3e 8216 6dbd 392f 0b3d
000002f0: d8d4 a1bf ec05 2f3f da03 e23e bf46 b4bc
00000300: 5a40 69be a91a 24bf 7846 113d 554a d23e
00000310: 48c4 533e 54cd a73d 164d 83be a13e 353e
00000320: b492 05bf 00f4 a13c 3d7b 163e a2d7 d7be
00000330: d6a8 29bd 1a27 083e d232 86be ce79 e83d
00000340: d861 7cbf 3534 54be 4102 b3be cd2f 3abf
00000350: a91c d8be 520d 61be 9266 193e 4ddf 4b3e
00000360: 3a1d 14bf b5c5 4ebd 8730 fa3e ca3e 433e
00000370: f8df bd3d e0ce 4e3e 88c2 003e 2f93 e3be
00000380: db51 963e 5d42 023d 3a7f 66ba 35c2 8c3e
00000390: 65e3 7f3e 0e49 cf3d 3307 1bbc ebcd e0bd
000003a0: 8a42 763e fdad 393e 38c1 eabe a9f9 3cbe
000003b0: af06 0f3d f9e3 4fbf b8e3 6ebd b9df cebe
000003c0: 703e 58be 899a 263e 4754 86be 595c 11bf
000003d0: 61d0 2d3e a5a7 633e 1d1b 1ebf 4d03 60bf
000003e0: 82e2 953e dcad 3d3e 9fb1 09bf 6c04 8b3d
000003f0: bde7 33bd e7a2 19bf ee30 6ebe 5f8b 3c3d
0.5873244 0.2272333 0.028178094 0.4916754 0.276871 0.1578991 0.083839305 -0.87899816
0.41584402 0.4022113 0.23260593 0.4082585 -0.88511544 0.016191674 -0.10686721 0.2385433
-0.41693386 -0.55860436 -1.0643792 -0.7379434 0.1867396 -0.029458754 -0.6480997 -0.20204726
-0.07354654 -1.1695298 0.464414 0.32506487 0.17965265 0.23791072 -0.2295573 -0.897386
0.2394703 -0.18485378 0.30252248 0.32041332 -1.0123591 -1.2949808 0.095069736 -1.170505
0.27383012 0.49395952 -0.3024777 0.4057429 -0.43857133 -0.65933645 0.07546489 -0.098810405
-0.40734679 0.42315003 -0.50083023 -0.35822818 0.07207672 -0.24327847 -0.7824932 -0.6036691
0.42213205 0.16061744 0.3904314 0.3148197 0.118233584 -0.3963538 -0.67936975 0.004780988
-0.048139084 -0.49055156 0.18684933 0.21859407 -1.1915624 -0.9634253 -0.3637441 0.5033819
0.13728654 0.29174823 -1.2897573 -0.05245828 0.14982495 0.3610875 -1.1175739 -1.2691209
-0.13428514 -0.34369287 0.6163314 -0.20946985 -0.4006457 -0.0013680569 -0.26237002 -0.053443406
0.32347456 0.2802833 0.4495387 -0.7585678 0.201433 -0.26239714 0.26061562 -0.41148052
0.3532813 0.19265367 -0.61533487 -0.96852267 0.46795088 0.45802173 -1.2701182 0.25358862
-1.2673811 -0.028557267 -0.4828099 0.3473649 0.24019006 -0.23510881 -1.5058876 0.82820517
-1.210839 -0.5681704 -0.58388186 1.0191842 0.28208473 -0.6934543 -0.29090434 -0.3277918
0.23248048 0.25808346 -0.536789 0.123900004 -0.38902244 -0.43477815 0.54747075 -1.2513049
-0.45378911 -0.35134193 0.17235972 0.10378356 0.10420481 -1.0358949 -1.2220606 0.39334694
-0.16740784 -0.54810464 0.06081076 -0.47789383 0.11510938 0.26040986 0.3951501 -0.28431815
-0.49941337 0.4715174 0.35831106 -0.9830351 -0.8968422 0.4141521 0.31306252 0.1169693
0.06553036 0.20778759 -0.68041563 -0.9464706 0.11973358 0.20196982 0.20442288 0.4483316
0.29588455 0.053698957 -1.221547 -0.45340273 0.35678676 0.39010668 -0.09763529 0.16309752
0.05515414 -0.47960052 -0.5988387 -0.3730498 0.19432446 -0.733397 -0.08003784 -0.52634746
0.14918047 -0.13743794 -0.55242735 -0.42055634 0.22457655 0.19161716 -0.48512462 -1.0263716
-0.07624605 0.24606054 -0.057882793 0.033980582 -1.264308 0.6836841 0.44143564 -0.02200639
-0.22778454 -0.6410318 0.035467595 0.41072336 0.20680344 0.0819346 -0.2564475 0.17699672
-0.52176976 0.019769669 0.14695449 -0.42156702 -0.04142078 0.13296166 -0.26210648 0.113513574
-0.985868 -0.2072304 -0.34962657 -0.7272919 -0.42209366 -0.21977738 0.14980534 0.19909401
-0.57857096 -0.050481517 0.48865148 0.19066921 0.09271234 0.20196104 0.12574208 -0.4444823
0.29359326 0.03180157 -0.0008792762 0.27491918 0.24989088 0.10121356 -0.009462166 -0.10976776
0.2404882 0.18132778 -0.4585054 -0.18454613 0.034918483 -0.81207234 -0.05832264 -0.40405062
-0.21117568 0.16269888 -0.26236174 -0.56781536 0.16974021 0.2223192 -0.6176012 -0.87505037
0.29274374 0.18523353 -0.53786653 0.06787953 -0.043922175 -0.60014194 -0.23260853 0.046031352

model/dense/BiasAdd/ReadVariableOp f4 [128]
00000000: 0000 0000 df08 f8bc 0000 0000 7f3a 893c
00000010: bfe3 ccbc 30a7 06bd 71e7 3abc 0000 0000
00000020: e04a 65bd d73e 183d 5d0a 04bc 0000 0000
00000030: c673 343d ea6f 4cbd 861f b6bb 0000 0000
00000040: 2d6e d1bb 3129 743a e864 19bb 1bc4 4abc
00000050: 0000 0000 0000 0000 0000 0000 b8f7 8d3b
00000060: 41a1 d1bb 0000 0000 bd28 233d 0a14 ac3b
00000070: 0000 0000 3da7 4fbd 223f e6bc b00c 36bc
00000080: 0000 0000 783e 46bc 0000 0000 0000 0000
00000090: cb48 41bd 0000 0000 99aa 19bd 0000 0000
000000a0: 0000 0000 6fe1 36bc 0000 0000 19ea b7bb
000000b0: 3493 153c fd92 303c 0000 0000 831b 82bb
000000c0: 6627 e4bc ec6d 67bd 6f99 3b3d 1a96 1b3d
000000d0: 5fef f2bb 0000 0000 0000 0000 9f1c 5f3c
000000e0: 0000 0000 e1f0 6a3d 0000 0000 37f7 11bd
000000f0: 0000 0000 04fe c2bc d34c 8abd cca0 893c
00000100: 05bb 06bc 0000 0000 20eb 3b3b 0000 0000
00000110: fa7d 633d 0dd2 36bc 0000 0000 de3a 433b
00000120: c334 863b b9be c4bb 0000 0000 ac20 b6bb
00000130: 0000 0000 71f5 70bd ecf4 313c 7158 27bc
00000140: 9607 34bc 4a2c c13c 9f58 0dbc 35b1 b23d
00000150: 0000 0000 1e2d a33c 0000 0000 5222 203d
00000160: 0000 0000 4cd4 00bd 5d34 94bd 7211 1a3d
00000170: 8f36 abbb a28c a73b 0000 0000 0000 0000
00000180: 0000 0000 f5b8 853c e478 993c 0000 0000
00000190: 0000 0000 496e 20bc c417 39bc d2be 9e3c
000001a0: 0000 0000 8893 c43c 0000 0000 0000 0000
000001b0: 3950 733d 0000 0000 232a 5c3b 0000 0000
000001c0: b595 29bc 0000 0000 e973 09bc f75c 17bc
000001d0: 896d 31bd 0000 0000 0000 0000 0132 f63c
000001e0: 897f 3e3d 58d6 11bb 6395 4fbc aa8a 553b
000001f0: 0000 0000 0000 0000 1946 473c 0000 0000
0.0 -0.030277668 0.0 0.016751526 -0.025010942 -0.032874286 -0.011407719 0.0
-0.05597961 0.037169304 -0.008059111 0.0 0.044055723 -0.049911417 -0.005557957 0.0
-0.006391308 0.00093139993 -0.0023406092 -0.012375857 0.0 0.0 0.0 0.004332509
-0.006397397 0.0 0.039833773 0.0052514123 0.0 -0.0506966 -0.028106276 -0.011111423
0.0 -0.012099855 0.0 0.0 -0.04718856 0.0 -0.03751621 0.0
0.0 -0.011162146 0.0 -0.0056126234 0.009129334 0.010777232 0.0 -0.003970565
-0.027850818 -0.056501314 0.045800623 0.037984945 -0.007413789 0.0 0.0 0.013617664
0.0 0.057358626 0.0 -0.035636153 0.0 -0.023802765 -0.06752934 0.016800307
-0.0082233 0.0 0.002867408 0.0 0.055540062 -0.011158478 0.0 0.0029789726
0.004095645 -0.006004181 0.0 -0.005558094 0.0 -0.05882782 0.010861617 -0.010213957
-0.010988137 0.023580689 -0.008627086 0.08725206 0.0 0.019918974 0.0 0.03909523
0.0 -0.031452462 -0.0723655 0.037614293 -0.0052250098 0.0051132003 0.0 0.0
0.0 0.016323546 0.018734403 0.0 0.0 -0.009791919 -0.01129717 0.0193781
0.0 0.02399613 0.0 0.0 0.05940268 0.0 0.0033594451 0.0
-0.010350634 0.0 -0.008389452 -0.009238473 -0.04331735 0.0 0.0 0.03005314
0.046508346 -0.0022253003 -0.012669894 0.003258387 0.0 0.0 0.012162709 0.0

model/dense_2/BiasAdd/ReadVariableOp f4 [6]
00000000: 2050 cc3b bf20 5fbd ef7d 07bd ee73 913d
00000010: a065 13be 64a5 223e
0.0062351376 -0.05447459 -0.033079084 0.0710219 -0.14394236 0.15883404

model/dense_1/BiasAdd/ReadVariableOp f4 [64]
00000000: b3a7 85bd 0115 b7ba a4e7 833c b4a5 31bc
00000010: b3d1 e73c 0b60 533e edb0 0a3e fc47 c33d
00000020: 03d9 22bd d165 9e3c 54b3 1e3e 88d2 71bd
00000030: 3420 953e 3ce2 e93d 6348 013d 2fde a13d
00000040: be82 46bc aaa0 083e 347d 1d3e 5f74 0d3e
00000050: ec12 c33d 6d9d a13c 3f60 0c3e 6d6d 39bd
00000060: 99c8 063e 67c2 6d3e 10a5 993d b39f 893c
00000070: b1c1 d5ba 92e6 79bd c093 643e 78bb c33d
00000080: f5d2 b93d 1c7b 1b3e 4b57 633d 68e4 42bc
00000090: 0d70 7c3e fdf8 693e 8cb4 3f3e e885 723e
000000a0: 8e27 213e a05e 36bb fdc7 183e 74a8 50bc
000000b0: aef4 fc3d 9d8c 9a3c edd4 4d3e e74c dd3c
000000c0: d1c4 073e c957 85bc 75dd 653d 68aa 89bb
000000d0: f9fd 3d3e 2603 3d3e d1a4 1d3e 1c31 083e
000000e0: b309 703d 4d7f 3a3d 2593 8fbd 2fa6 9a3b
000000f0: 25b1 1a3e 75ff 053c bf55 bd3d d0b8 823e
-0.06526127 -0.0013968052 0.016101666 -0.010842729 0.028298235 0.20642106 0.13544054 0.09535214
-0.03975774 0.01933566 0.15498096 -0.05903867 0.29126132 0.11420104 0.031563174 0.07903706
-0.012116132 0.13342538 0.15379792 0.13813923 0.095250934 0.019728387 0.1370859 -0.045270372
0.1316246 0.2321869 0.07502186 0.016799783 -0.0016308335 -0.061010905 0.22321987 0.09557241
0.0907344 0.15183681 0.05550317 -0.011895277 0.24652119 0.22848888 0.18721217 0.23683894
0.15737745 -0.0027827397 0.1492004 -0.012735475 0.123513564 0.018865878 0.20100756 0.027014209
0.13258673 -0.01627721 0.0561194 -0.004201222 0.18553914 0.18458232 0.15394904 0.13299984
0.058603 0.04553156 -0.070104875 0.0047195177 0.15106638 0.0081785815 0.092448704 0.25531626

model/dense/MatMul i1 [128, 34] scale=0.009880804 zero_point=0
00000000: fb0b f60e 0708 f0f0 0a0a f00b 10fc 01f1
00000010: 00f4 f5fd 0603 f4f3 0503 ffef 0302 f5ef
00000020: f9f3 0cef 06ec 01fb f5f2 0a10 f0f9 07f2
00000030: f3ee 0aef f2c3 29c9 ffdd 172d ecf3 07eb
00000040: 1afd 2c07 fd0b effd 0c13 fd07 1312 0a02
00000050: efff faf8 0512 0606 090c 0900 06f5 02f0
00000060: 10ed 0fee f5f2 e20b ed0e df09 e016 f00c
00000070: e706 0105 2fe1 e7d5 0dd8 ebc4 f942 02d3
00000080: fc07 29fb ec01 32ee 0402 fc07 09ff f113
00000090: 140c 0aee f603 0dd8 fef2 d6df 30bf 0122
000000a0: ffee ef18 1700 f919 0e02 01ea 05e6 fef8
000000b0: 00e6 f0e1 0bea f5eb fa2b 2a10 d9fc 3b07
000000c0: 12ff e807 fd07 f3f7 e812 0a12 030f 0312
000000d0: f501 07f8 ee08 fafa f8fa fefb fefd f102
000000e0: f5f4 fe11 04fa 0ff4 f3f1 effd 050f 0102
000000f0: 1108 06f6 f9f8 0a03 0708 0ef5 0309 030c
-0.04940402 0.108688846 -0.09880804 0.13833126 0.06916563 0.079046436 -0.15809287 -0.15809287
0.09880804 0.09880804 -0.15809287 0.108688846 0.15809287 -0.039523218 0.009880804 -0.14821206
0.0 -0.11856966 -0.108688846 -0.029642414 0.05928483 0.029642414 -0.11856966 -0.12845045
0.04940402 0.029642414 -0.009880804 -0.16797368 0.029642414 0.019761609 -0.108688846 -0.16797368
-0.06916563 -0.12845045 0.11856966 -0.16797368 0.05928483 -0.19761609 0.009880804 -0.04940402
-0.108688846 -0.13833126 0.09880804 0.15809287 -0.15809287 -0.06916563 0.06916563 -0.13833126
-0.12845045 -0.17785448 0.09880804 -0.16797368 -0.13833126 -0.6027291 0.40511298 -0.5434442
-0.009880804 -0.34582815 0.2272585 0.4446362 -0.19761609 -0.12845045 0.06916563 -0.2074969
0.2569009 -0.029642414 0.43475538 0.06916563 -0.029642414 0.108688846 -0.16797368 -0.029642414
0.11856966 0.18773529 -0.029642414 0.06916563 0.18773529 0.17785448 0.09880804 0.019761609
-0.16797368 -0.009880804 -0.05928483 -0.079046436 0.04940402 0.17785448 0.05928483 0.05928483
0.08892724 0.11856966 0.08892724 0.0 0.05928483 -0.108688846 0.019761609 -0.15809287
0.15809287 -0.18773529 0.14821206 -0.17785448 -0.108688846 -0.13833126 -0.29642412 0.108688846
-0.18773529 0.13833126 -0.32606655 0.08892724 -0.31618574 0.21737769 -0.15809287 0.11856966
-0.24702011 0.05928483 0.009880804 0.04940402 0.46439782 -0.30630493 -0.24702011 -0.4248746
0.12845045 -0.39523217 -0.2074969 -0.59284824 -0.06916563 0.6521331 0.019761609 -0.4446362
-0.039523218 0.06916563 0.40511298 -0.04940402 -0.19761609 0.009880804 0.49404022 -0.17785448
0.039523218 0.019761609 -0.039523218 0.06916563 0.08892724 -0.009880804 -0.14821206 0.18773529
0.19761609 0.11856966 0.09880804 -0.17785448 -0.09880804 0.029642414 0.12845045 -0.39523217
-0.019761609 -0.13833126 -0.4149938 -0.32606655 0.47427863 -0.64225227 0.009880804 0.33594736
-0.009880804 -0.17785448 -0.16797368 0.23713931 0.2272585 0.0 -0.06916563 0.24702011
0.13833126 0.019761609 0.009880804 -0.21737769 0.04940402 -0.2569009 -0.019761609 -0.079046436
0.0 -0.2569009 -0.15809287 -0.30630493 0.108688846 -0.21737769 -0.108688846 -0.2074969
-0.05928483 0.4248746 0.4149938 0.15809287 -0.38535136 -0.039523218 0.58296746 0.06916563
0.17785448 -0.009880804 -0.23713931 0.06916563 -0.029642414 0.06916563 -0.12845045 -0.08892724
-0.23713931 0.17785448 0.09880804 0.17785448 0.029642414 0.14821206 0.029642414 0.17785448
-0.108688846 0.009880804 0.06916563 -0.079046436 -0.17785448 0.079046436 -0.05928483 -0.05928483
-0.079046436 -0.05928483 -0.019761609 -0.04940402 -0.019761609 -0.029642414 -0.14821206 0.019761609
-0.108688846 -0.11856966 -0.019761609 0.16797368 0.039523218 -0.05928483 0.14821206 -0.11856966
-0.12845045 -0.14821206 -0.16797368 -0.029642414 0.04940402 0.14821206 0.009880804 0.019761609
0.16797368 0.079046436 0.05928483 -0.09880804 -0.06916563 -0.079046436 0.09880804 0.029642414
0.06916563 0.079046436 0.13833126 -0.108688846 0.029642414 0.08892724 0.029642414 0.11856966

model/dense_1/MatMul i1 [64, 128] scale=0.008229091 zero_point=0
00000000: 0527 0f10 4023 14f1 3beb 05f0 de3c ea09
00000010: 29fd f4ed f406 f211 f704 abf2 ed19 2904
00000020: edeb 1009 080a 4004 0908 f4fb f2fd f8f6
00000030: fa40 d3e9 0105 0006 faa7 140b fe37 f232
00000040: 15f5 13ee cd12 f3ee fef5 ff12 f542 f514
00000050: 1b0c 0cc1 fff5 0bb1 0d34 60e1 f20b ecee
00000060: 1324 de14 f406 ef0a 0fe8 0e00 b3f0 07f7
00000070: ec07 08f5 1901 fb1a c813 f218 12ef 1e02
00000080: fb12 1204 320b f0fd 2fda f2f7 d42a ebfb
00000090: fe04 fbee f108 f410 14f3 c3fc 0714 2f05
000000a0: fb0e 0f10 20fe 3409 0518 faef f010 ee0f
000000b0: 1225 e704 fb0f 05fd ecd0 f5fe f212 0212
000000c0: 0211 1808 bff5 10f1 e111 fb0c f42a f70a
000000d0: 030d fdc5 14fd 00d2 ec23 27e8 12f3 1214
000000e0: f60e d3f7 f60d 090b 13e8 f0ef bdfa 14ef
000000f0: f3f5 01ff 13f8 140a c604 fffa 0605 16fa
0.041145455 0.32093453 0.12343636 0.13166545 0.5266618 0.28801817 0.16458182 -0.12343636
0.48551637 -0.17281091 0.041145455 -0.13166545 -0.2797891 0.49374545 -0.18104 0.07406182
0.33739272 -0.024687272 -0.098749086 -0.15635273 -0.098749086 0.049374543 -0.11520727 0.13989455
-0.07406182 0.032916363 -0.6994727 -0.11520727 -0.15635273 0.20572726 0.33739272 0.032916363
-0.15635273 -0.17281091 0.13166545 0.07406182 0.06583273 0.08229091 0.5266618 0.032916363
0.07406182 0.06583273 -0.098749086 -0.041145455 -0.11520727 -0.024687272 -0.06583273 -0.08229091
-0.049374543 0.5266618 -0.37030908 -0.1892691 0.008229091 0.041145455 0.0 0.049374543
-0.049374543 -0.7323891 0.16458182 0.09052 -0.016458182 0.4526 -0.11520727 0.41145453
0.17281091 -0.09052 0.15635273 -0.14812364 -0.41968364 0.14812364 -0.10697818 -0.14812364
-0.016458182 -0.09052 -0.008229091 0.14812364 -0.09052 0.54311997 -0.09052 0.16458182
0.22218545 0.098749086 0.098749086 -0.51843274 -0.008229091 -0.09052 0.09052 -0.6500982
0.10697818 0.4279127 0.7899927 -0.25510183 -0.11520727 0.09052 -0.16458182 -0.14812364
0.15635273 0.29624727 -0.2797891 0.16458182 -0.098749086 0.049374543 -0.13989455 0.08229091
0.12343636 -0.19749817 0.11520727 0.0 -0.63364 -0.13166545 0.057603635 -0.07406182
-0.16458182 0.057603635 0.06583273 -0.09052 0.20572726 0.008229091 -0.041145455 0.21395636
-0.46082908 0.15635273 -0.11520727 0.19749817 0.14812364 -0.13989455 0.24687272 0.016458182
-0.041145455 0.14812364 0.14812364 0.032916363 0.41145453 0.09052 -0.13166545 -0.024687272
0.38676727 -0.31270546 -0.11520727 -0.07406182 -0.36208 0.34562182 -0.17281091 -0.041145455
-0.016458182 0.032916363 -0.041145455 -0.14812364 -0.12343636 0.06583273 -0.098749086 0.13166545
0.16458182 -0.10697818 -0.5019745 -0.032916363 0.057603635 0.16458182 0.38676727 0.041145455
-0.041145455 0.11520727 0.12343636 0.13166545 0.2633309 -0.016458182 0.4279127 0.07406182
0.041145455 0.19749817 -0.049374543 -0.13989455 -0.13166545 0.13166545 -0.14812364 0.12343636
0.14812364 0.30447635 -0.20572726 0.032916363 -0.041145455 0.12343636 0.041145455 -0.024687272
-0.16458182 -0.39499635 -0.09052 -0.016458182 -0.11520727 0.14812364 0.016458182 0.14812364
0.016458182 0.13989455 0.19749817 0.06583273 -0.5348909 -0.09052 0.13166545 -0.12343636
-0.25510183 0.13989455 -0.041145455 0.098749086 -0.098749086 0.34562182 -0.07406182 0.08229091
0.024687272 0.10697818 -0.024687272 -0.48551637 0.16458182 -0.024687272 0.0 -0.3785382
-0.16458182 0.28801817 0.32093453 -0.19749817 0.14812364 -0.10697818 0.14812364 0.16458182
-0.08229091 0.11520727 -0.37030908 -0.07406182 -0.08229091 0.10697818 0.07406182 0.09052
0.15635273 -0.19749817 -0.13166545 -0.13989455 -0.5513491 -0.049374543 0.16458182 -0.13989455
-0.10697818 -0.09052 0.008229091 -0.008229091 0.15635273 -0.06583273 0.16458182 0.08229091
-0.47728726 0.032916363 -0.008229091 -0.049374543 0.049374543 0.041145455 0.18104 -0.049374543
